Mounted at /content/drive
aa
Model: "model"
_________________________________________________________________
 Layer (type)                Output Shape              Param #   
=================================================================
 input_1 (InputLayer)        [(None, 100, 1710, 1)]    0         
                                                                 
 conv2d (Conv2D)             (None, 100, 1710, 64)     640       
                                                                 
 batch_normalization (BatchN  (None, 100, 1710, 64)    256       
 ormalization)                                                   
                                                                 
 re_lu (ReLU)                (None, 100, 1710, 64)     0         
                                                                 
 max_pooling2d (MaxPooling2D  (None, 50, 855, 64)      0         
 )                                                               
                                                                 
 conv2d_1 (Conv2D)           (None, 50, 855, 64)       36928     
                                                                 
 batch_normalization_1 (Batc  (None, 50, 855, 64)      256       
 hNormalization)                                                 
                                                                 
 re_lu_1 (ReLU)              (None, 50, 855, 64)       0         
                                                                 
 max_pooling2d_1 (MaxPooling  (None, 25, 427, 64)      0         
 2D)                                                             
                                                                 
 conv2d_2 (Conv2D)           (None, 25, 427, 128)      73856     
                                                                 
 batch_normalization_2 (Batc  (None, 25, 427, 128)     512       
 hNormalization)                                                 
                                                                 
 re_lu_2 (ReLU)              (None, 25, 427, 128)      0         
                                                                 
 max_pooling2d_2 (MaxPooling  (None, 12, 213, 128)     0         
 2D)                                                             
                                                                 
 conv2d_3 (Conv2D)           (None, 12, 213, 128)      147584    
                                                                 
 batch_normalization_3 (Batc  (None, 12, 213, 128)     512       
 hNormalization)                                                 
                                                                 
 re_lu_3 (ReLU)              (None, 12, 213, 128)      0         
                                                                 
 max_pooling2d_3 (MaxPooling  (None, 6, 106, 128)      0         
 2D)                                                             
                                                                 
 lambda (Lambda)             (None, 106, 6, 128)       0         
                                                                 
 reshape (Reshape)           (None, 106, 768)          0         
                                                                 
 dropout (Dropout)           (None, 106, 768)          0         
                                                                 
 bidirectional (Bidirectiona  (None, 106, 1024)        5246976   
 l)                                                              
                                                                 
 dropout_1 (Dropout)         (None, 106, 1024)         0         
                                                                 
 dense (Dense)               (None, 106, 1782)         1826550   
                                                                 
=================================================================
Total params: 7,334,070
Trainable params: 7,333,302
Non-trainable params: 768
_________________________________________________________________
Epoch 1/10
2284/2284 [==============================] - 1029s 442ms/step - loss: 25.3475 - val_loss: 10.0241 - val_edit_distance: 0.1047
…
